…
r=None, multires_p=32, multires_x=32, n_attned_gnn=6, norm_sf=False, num_node_features=128, only_test=True, onnx_dir=None, optype='pe', override_data=False, pretrain='checkpoints/ckpt_best.pth', print_freq=50, resume=None, test_freq=1, test_model_type=None, train_model_types=None, train_num=781, train_test_stage=False, use_degree=True, warmup_rate=0.1)
2024-04-04 21:25:10,452-main.py:76-INFO-Loading dataset:
2024-04-04 21:25:11,627-main.py:197-INFO-Test data = 15625
2024-04-04 21:25:12,426-main.py:101-INFO-Init Model: Net(
  (gnn_layers): ModuleList(
    (0): GNN_LinearAttn(
      (lin_l): Linear(128, 512, bias=True)
      (lin_r): Linear(128, 512, bias=False)
      (lin_d): Linear(1, 128, bias=True)
      (sigmoid_d): Sigmoid()
      (lin_qk): Linear(128, 128, bias=True)
      (sigmoid_qk): Sigmoid()
    )
    (1): GNN_LinearAttn(
      (lin_l): Linear(512, 512, bias=True)
      (lin_r): Linear(512, 512, bias=False)
      (lin_d): Linear(1, 512, bias=True)
      (sigmoid_d): Sigmoid()
      (lin_qk): Linear(512, 512, bias=True)
      (sigmoid_qk): Sigmoid()
    )
    (2): GNN_LinearAttn(
      (lin_l): Linear(512, 512, bias=True)
      (lin_r): Linear(512, 512, bias=False)
      (lin_d): Linear(1, 512, bias=True)
      (sigmoid_d): Sigmoid()
      (lin_qk): Linear(512, 512, bias=True)
      (sigmoid_qk): Sigmoid()
    )
    (3): GNN_LinearAttn(
      (lin_l): Linear(512, 512, bias=True)
      (lin_r): Linear(512, 512, bias=False)
      (lin_d): Linear(1, 512, bias=True)
      (sigmoid_d): Sigmoid()
      (lin_qk): Linear(512, 512, bias=True)
      (sigmoid_qk): Sigmoid()
    )
    (4): GNN_LinearAttn(
      (lin_l): Linear(512, 512, bias=True)
      (lin_r): Linear(512, 512, bias=False)
      (lin_d): Linear(1, 512, bias=True)
      (sigmoid_d): Sigmoid()
      (lin_qk): Linear(512, 512, bias=True)
      (sigmoid_qk): Sigmoid()
    )
    (5): GNN_LinearAttn(
      (lin_l): Linear(512, 512, bias=True)
      (lin_r): Linear(512, 512, bias=False)
      (lin_d): Linear(1, 512, bias=True)
      (sigmoid_d): Sigmoid()
      (lin_qk): Linear(512, 512, bias=True)
      (sigmoid_qk): Sigmoid()
    )
  )
  (gnn_drops): ModuleList(
    (0): Dropout(p=0.05, inplace=False)
    (1): Dropout(p=0.05, inplace=False)
    (2): Dropout(p=0.05, inplace=False)
    (3): Dropout(p=0.05, inplace=False)
    (4): Dropout(p=0.05, inplace=False)
    (5): Dropout(p=0.05, inplace=False)
  )
  (gnn_relus): ModuleList(
    (0): ReLU()
    (1): ReLU()
    (2): ReLU()
    (3): ReLU()
    (4): ReLU()
    (5): ReLU()
  )
  (FFN_layers): ModuleList(
    (0): PreNorm(
      (norm): LayerNorm((512,), eps=1e-05, elementwise_affine=True)
      (fn): GroupedFeedForward(
        (net): Sequential(
          (0): GroupLinear(
            (normalization_fn): LayerNorm((256,), eps=1e-05, elementwise_affine=True)
          )
          (1): ReLU()
          (2): Dropout(p=0.05, inplace=False)
          (3): GroupLinear(
            (normalization_fn): LayerNorm((64,), eps=1e-05, elementwise_affine=True)
          )
          (4): Dropout(p=0.05, inplace=False)
        )
      )
    )
    (1): PreNorm(
      (norm): LayerNorm((512,), eps=1e-05, elementwise_affine=True)
      (fn): GroupedFeedForward(
        (net): Sequential(
          (0): GroupLinear(
            (normalization_fn): LayerNorm((256,), eps=1e-05, elementwise_affine=True)
          )
          (1): ReLU()
          (2): Dropout(p=0.05, inplace=False)
          (3): GroupLinear(
            (normalization_fn): LayerNorm((64,), eps=1e-05, elementwise_affine=True)
          )
          (4): Dropout(p=0.05, inplace=False)
        )
      )
    )
    (2): PreNorm(
      (norm): LayerNorm((512,), eps=1e-05, elementwise_affine=True)
      (fn): GroupedFeedForward(
        (net): Sequential(
          (0): GroupLinear(
            (normalization_fn): LayerNorm((256,), eps=1e-05, elementwise_affine=True)
          )
          (1): ReLU()
          (2): Dropout(p=0.05, inplace=False)
          (3): GroupLinear(
            (normalization_fn): LayerNorm((64,), eps=1e-05, elementwise_affine=True)
          )
          (4): Dropout(p=0.05, inplace=False)
        )
      )
    )
    (3): PreNorm(
      (norm): LayerNorm((512,), eps=1e-05, elementwise_affine=True)
      (fn): GroupedFeedForward(
        (net): Sequential(
          (0): GroupLinear(
            (normalization_fn): LayerNorm((256,), eps=1e-05, elementwise_affine=True)
          )
          (1): ReLU()
          (2): Dropout(p=0.05, inplace=False)
          (3): GroupLinear(
            (normalization_fn): LayerNorm((64,), eps=1e-05, elementwise_affine=True)
          )
          (4): Dropout(p=0.05, inplace=False)
        )
      )
    )
    (4): PreNorm(
      (norm): LayerNorm((512,), eps=1e-05, elementwise_affine=True)
      (fn): GroupedFeedForward(
        (net): Sequential(
          (0): GroupLinear(
            (normalization_fn): LayerNorm((256,), eps=1e-05, elementwise_affine=True)
          )
          (1): ReLU()
          (2): Dropout(p=0.05, inplace=False)
          (3): GroupLinear(
            (normalization_fn): LayerNorm((64,), eps=1e-05, elementwise_affine=True)
          )
          (4): Dropout(p=0.05, inplace=False)
        )
      )
    )
    (5): PreNorm(
      (norm): LayerNorm((512,), eps=1e-05, elementwise_affine=True)
      (fn): GroupedFeedForward(
        (net): Sequential(
          (0): GroupLinear(
            (normalization_fn): LayerNorm((256,), eps=1e-05, elementwise_affine=True)
          )
          (1): ReLU()
          (2): Dropout(p=0.05, inplace=False)
          (3): GroupLinear(
            (normalization_fn): LayerNorm((64,), eps=1e-05, elementwise_affine=True)
          )
          (4): Dropout(p=0.05, inplace=False)
        )
      )
    )
  )
  (layer_scale): ParameterList(
      (0): Parameter containing: [torch.cuda.FloatTensor of size 512 (GPU 0)]
      (1): Parameter containing: [torch.cuda.FloatTensor of size 512 (GPU 0)]
      (2): Parameter containing: [torch.cuda.FloatTensor of size 512 (GPU 0)]
      (3): Parameter containing: [torch.cuda.FloatTensor of size 512 (GPU 0)]
      (4): Parameter containing: [torch.cuda.FloatTensor of size 512 (GPU 0)]
      (5): Parameter containing: [torch.cuda.FloatTensor of size 512 (GPU 0)]
  )
  (fusion_mlp): Sequential(
    (0): Linear(in_features=3072, out_features=768, bias=True)
    (1): ReLU()
    (2): Linear(in_features=768, out_features=6, bias=True)
    (3): Sigmoid()
  )
  (fc_1): Linear(in_features=512, out_features=512, bias=True)
  (fc_2): Linear(in_features=512, out_features=512, bias=True)
  (fc_drop_1): Dropout(p=0.05, inplace=False)
  (fc_drop_2): Dropout(p=0.05, inplace=False)
  (fc_relu1): ReLU()
  (fc_relu2): ReLU()
  (predictor): Linear(in_features=512, out_features=1, bias=True)
)
2024-04-04 21:25:12,427-main.py:109-INFO-Loading model:
2024-04-04 21:25:12,429-main.py:287-INFO-Loading pretrain: checkpoints/ckpt_best.pth
2024-04-04 21:26:37,614-main.py:69-INFO-Loading args: 
Namespace(all_latency_file=None, batch_size=1024, ckpt_save_freq=1000, data_root='D:/NAR/NAR-Former-V2-main/NAR-Former-V2-main/dataset/nasbench201/all.pt
…
